wdlf_7Gyr_compare_da_cooling_models.npy (npy, 8128 bytes, 1 tensors)

array f8 [5, 200]
00000000: 0000 0000 0000 0080 0000 0000 0000 0080
00000010: 0000 0000 0000 0080 0000 0000 0000 0080
00000020: 0000 0000 0000 0080 0000 0000 0000 0080
00000030: 0000 0000 0000 0080 0000 0000 0000 0080
00000040: 0000 0000 0000 0080 0000 0000 0000 0080
00000050: 0000 0000 0000 0080 0000 0000 0000 0080
00000060: 0000 0000 0000 0080 0000 0000 0000 0080
00000070: 0000 0000 0000 0080 0000 0000 0000 0080
00000080: 0000 0000 0000 0080 a707 ae3d da13 ab3e
00000090: cdfd 634c 5a23 ae3e 5666 8365 1db2 b03e
000000a0: a2c8 7d5e 803a b23e e19c 5bf7 4891 b33e
000000b0: f1ca 43d1 7efa b43e 4bbf 62f7 36b4 b63e
000000c0: 13d6 b02c 3a51 b93e 3a67 6425 1bf9 bb3e
000000d0: 9201 6277 a039 bf3e c8db ae4d 2747 c13e
000000e0: e481 6478 eb2a c33e 8589 e90a dd19 c53e
000000f0: c872 6901 19f2 c63e ba59 848f 2e67 c93e
00000100: de6e dcc2 d928 cc3e 2e6a 751e 9dfb ce3e
00000110: 9247 8903 5201 d13e 3c61 1291 c858 d23e
00000120: 26be 2453 9903 d43e 062f 7448 57eb d53e
00000130: 3396 cd9f d626 d73e 4083 5c06 8d8c d83e
00000140: f408 9068 22bb d93e a919 f06c 3874 db3e
00000150: 28a4 9f7d 85a0 dc3e 015d cfcd 36e2 dd3e
00000160: 4f9e 0954 875f df3e 03ee 53e8 0f5a e03e
00000170: 7fb5 92b5 9b07 e13e 6447 e3aa 3bd9 e13e
00000180: f229 b885 69aa e23e d435 6b90 0d8e e33e
00000190: a532 51bb eda2 e43e 00fa 7512 e1bb e53e
000001a0: b47b 015f d8ed e63e 2ac8 eb94 a05a e83e
000001b0: 5e21 75ad f40b ea3e 4b55 c3fd 63a3 eb3e
000001c0: 92f8 4f77 1845 ed3e 23d8 f477 311c ef3e
000001d0: da37 976b 289d f03e 001f 0ecf afb1 f13e
000001e0: ec01 12de 57e0 f23e 7e87 57eb 4248 f43e
000001f0: a510 d388 8ad9 f53e be1e b47d b48a f73e
00000200: 8933 8878 4865 f93e b5e8 7c09 d675 fb3e
00000210: 2587 d91c 13a3 fd3e dba6 2e40 320f 003f
00000220: 62b7 5df2 425e 013f 332a e940 ef06 033f
00000230: bd5c d90f aebe 043f b015 4fb3 26c0 063f
00000240: f2eb bfbb 3408 093f 51f4 ab7c bd68 0b3f
00000250: e4db 2a56 b651 0e3f c05e e41d fbfb 103f
00000260: 2411 1472 29f3 123f a962 2ae6 ff26 153f
00000270: 53be bd11 2413 183f 2f3a 5070 6d33 1b3f
00000280: 69f4 972e a9d7 1e3f 6621 e309 5278 213f
00000290: 10fe 58e2 97ca 233f 7dc4 e230 8d66 263f
000002a0: 209e a5d3 c24c 293f 6d56 07d4 be7a 2c3f
000002b0: af44 a008 4be7 2f3f 4f30 4ecd 0cc4 313f
000002c0: 98b2 fb2b 55a8 333f 701e b60c 0a99 353f
000002d0: b746 fd36 3594 373f 8216 91a8 2792 393f
000002e0: 45c2 c4ae a29a 3b3f 9fcf 9bfa 989f 3d3f
000002f0: 003e 1b53 41ac 3f3f bbf2 0d14 4bdc 403f
00000300: c066 81c3 46e7 413f a7b1 3119 6cfa 423f
00000310: 7421 01bf 9b1e 443f 0b70 a0f8 b757 453f
00000320: 8621 bb7b f8a7 463f 09eb 29b3 f5fd 473f
00000330: 279d 448c f259 493f a475 cb10 86b7 4a3f
00000340: e08b a7a4 a018 4c3f 40c1 9209 5495 4d3f
00000350: 44b5 5b47 bc2e 4f3f 7b7e 8339 8260 503f
00000360: aa07 c71f ea34 513f 1e98 68ab 031b 523f
00000370: bbd3 094e 5413 533f c3a2 d5f6 941c 543f
00000380: 0b71 9fde 4835 553f ee10 9eeb 3f5f 563f
00000390: af71 fbdc cb97 573f 7d85 0924 7ee3 583f
000003a0: f2da e136 db43 5a3f 3e02 f369 7db9 5b3f
000003b0: 3cd8 ed37 6244 5d3f b584 1c81 eae8 5e3f
000003c0: 2991 3409 5d54 603f a6f6 37ec 2245 613f
000003d0: 30fd f9e0 4b48 623f fcfe 0672 9d5e 633f
000003e0: a401 d29e fc8a 643f d5ce aede cdd0 653f
000003f0: 0207 f73d f833 673f ed63 99c3 29b7 683f
00000400: b844 e920 aa5e 6a3f bef5 4a6d bf30 6c3f
00000410: 1b36 6e02 0a2d 6e3f ad7a 2e64 cd29 703f
00000420: ace2 14a3 d854 713f 7f3d 359e 559b 723f
00000430: 3808 00d6 6c02 743f 17d4 ce9d 7a82 753f
00000440: cd77 ebfc 412e 773f 7551 2aaf 842f 793f
00000450: 02d4 4749 636e 7b3f 2b25 27c5 45f1 7d3f
00000460: 9015 a94a 6c7e 803f 49d5 9642 934d 823f
00000470: 9ba2 a565 385e 853f 9e57 04da 9a11 8a3f
00000480: 88d2 2710 03f8 913f 9788 2fed a6d5 a03f
00000490: bb09 3d78 363c b03f d0b1 4d09 9ed9 b73f
000004a0: 7abe dd48 1a28 d83f bfdd fefb decb c03f
000004b0: c30c 406e 9f44 aa3f 4f24 80b9 0bdf 983f
000004c0: 34a8 977f f2bd 903f 3163 b3d2 3e7a 853f
000004d0: b460 d70f e2b0 7c3f 8c05 cb1d cc37 753f
000004e0: 7fed f36e 3cd4 713f 9425 fc4a 0cf5 6b3f
000004f0: b2a9 9e19 4327 673f 2e0e 5693 26fa 613f
00000500: 5226 06c5 e14c 5d3f 5d0b 1ef9 ec80 573f
00000510: 439e f49c 0c2c 523f 1c04 a95b 74ba 4b3f
00000520: ff63 2461 d118 463f 0000 0000 0000 0080
00000530: 0000 0000 0000 0080 0000 0000 0000 0080
00000540: 0000 0000 0000 0080 0000 0000 0000 0080
00000550: 0000 0000 0000 0080 0000 0000 0000 0080
00000560: 0000 0000 0000 0080 0000 0000 0000 0080
00000570: 0000 0000 0000 0080 0000 0000 0000 0080
00000580: 0000 0000 0000 0080 0000 0000 0000 0080
00000590: 0000 0000 0000 0080 0000 0000 0000 0080
000005a0: 0000 0000 0000 0080 0000 0000 0000 0080
000005b0: 0000 0000 0000 0080 0000 0000 0000 0080
000005c0: 0000 0000 0000 0080 0000 0000 0000 0080
000005d0: 0000 0000 0000 0080 0000 0000 0000 0080
000005e0: 0000 0000 0000 0080 0000 0000 0000 0080
000005f0: 0000 0000 0000 0080 0000 0000 0000 0080
00000600: 0000 0000 0000 0080 0000 0000 0000 0080
00000610: 0000 0000 0000 0080 0000 0000 0000 0080
00000620: 0000 0000 0000 0080 0000 0000 0000 0080
00000630: 0000 0000 0000 0080 0000 0000 0000 0080
00000640: 0000 0000 0000 0000 0000 0000 0000 0000
00000650: f2b4 c5fb 2859 a2be 0e7b efc3 09f9 aebe
00000660: c848 2995 f821 b1be f175 53ef 0f6d b7be
00000670: 602b a66b 095b b9be c6ed 877c eec0 bbbe
00000680: 3e4b 34ba 3f4d c1be 89b2 a163 ab82 c5be
00000690: 328d 09e9 0ad8 c5be 9532 e072 2f1e c8be
000006a0: 9b54 a6bf 848a cdbe 7f52 d409 7619 cdbe
000006b0: bde0 7813 56e5 d2be 20b0 32d1 133a d3be
000006c0: 5e3b 3e1a 2e37 d6be 4df7 7adc c743 d8be
000006d0: aa3c b38b ef3a dabe afbc fda1 e0b4 dbbe
000006e0: fe01 be35 39ff ddbe a23b e397 9a73 dabe
000006f0: f0e3 ff6b 985a e0be 36e9 817f d411 e2be
00000700: 6ccc e476 f66c e0be d51f 895f c8a7 e2be
00000710: d4be 74dc f9f9 e3be 67fe e0be c2bf e3be
00000720: fa27 28c5 0557 e7be 7328 3a8b d827 eabe
00000730: e880 f654 9c70 ecbe e482 2750 7aed edbe
00000740: db5c 96cb 79cd eebe 956c cf0f 6d40 f2be
00000750: 9e8d e362 6055 f3be 91f3 05d2 8e9d f5be
00000760: b6c8 e8f7 545d f7be 2c84 da4a d8a3 fabe
00000770: bfc7 a8f7 76af fdbe 9c34 8093 f3a0 00bf
00000780: 4d7f d368 572b 02bf c709 df79 329c 05bf
00000790: ee08 75bd 9ab2 08bf c977 1f86 34c2 0abf
000007a0: f442 b637 d5ce 10bf 665a 06cd 3907 12bf
000007b0: 964b b513 2a38 1abf c7ee 62c7 e919 1ebf
000007c0: c219 1c28 fe57 24bf 4789 10ed f40d 26bf
000007d0: c48e 99ed 0f24 27bf 5ca2 c608 3dca 27bf
000007e0: 77a1 490f 05b4 27bf e522 381a 7e28 27bf
000007f0: 4b4f 7614 6ff8 21bf c3fb 5418 facc 17bf
-0.0 -0.0 -0.0 -0.0 -0.0 -0.0 -0.0 -0.0
-0.0 -0.0 -0.0 -0.0 -0.0 -0.0 -0.0 -0.0
-0.0 8.069738400703206e-07 8.981852708533315e-07 9.951449069706096e-07 1.0865045343114682e-06 1.1663150564724224e-06 1.2504158962116754e-06 1.353261692520858e-06
1.5090283109869294e-06 1.667324928406089e-06 1.8611612780106997e-06 2.0596913663200744e-06 2.2849625934825253e-06 2.515438686943516e-06 2.7353398864129565e-06 3.028280044624368e-06
3.3568826641859083e-06 3.693445467395772e-06 4.054345531816471e-06 4.374220467749924e-06 4.771723342053156e-06 5.2259684999546966e-06 5.519798375574298e-06 5.8529441042960814e-06
6.134746976196036e-06 6.54554032931133e-06 6.825217463182278e-06 7.1248170714001855e-06 7.4799439181215895e-06 7.797148337199659e-06 8.120403139545315e-06 8.510859825259106e-06
8.90048629910865e-06 9.324500309128044e-06 9.84022140406691e-06 1.0363532580323805e-05 1.0933438687908216e-05 1.16128982461141e-05 1.2420035473540463e-05 1.317894196299165e-05
1.3956978117232286e-05 1.4834465899765035e-05 1.5844247831790652e-05 1.687439811662219e-05 1.8001881362030294e-05 1.9342681033658164e-05 2.0837564581169814e-05 2.245122582869465e-05
2.4219166819650375e-05 2.6188180157073806e-05 2.8264055620736508e-05 3.063079932215186e-05 3.312722974056663e-05 3.6291290702001806e-05 3.95676488379958e-05 4.339330772710635e-05
4.7744855208940634e-05 5.2278788265504855e-05 5.7829262705970196e-05 6.478996462921504e-05 7.228794540387447e-05 8.068978199061529e-05 9.183795594735451e-05 0.00010376315556490859
0.0001176545153142736 0.00013328553627035415 0.00015099624686064394 0.00017090295336211542 0.0001930225206010364 0.00021728114553691853 0.00024340430201211713 0.00027108490513039636
0.000299950403116958 0.000329556420830524 0.0003597860259009033 0.00039018123840537527 0.0004212042974982881 0.0004520176395168499 0.00048328966941554863 0.0005145422547766157
0.0005463691259237277 0.0005791690658845564 0.0006140003661210662 0.0006513260170808456 0.0006914103791695748 0.0007321786600436873 0.0007736620250725954 0.0008153347603997896
0.0008574280157599388 0.000902811082729861 0.0009516162233162225 0.000999571964761885 0.0010502134674514698 0.0011050735316842151 0.0011642764367511954 0.0012275175789346205
0.0012944423310648513 0.0013654827330081237 0.0014399996616055557 0.001519082245203001 0.0016030922666040973 0.001692173456646753 0.001786323467710029 0.0018865861970385593
0.0019933526142656044 0.002108162125067664 0.002231739235696438 0.0023644518953175302 0.0025076803199796816 0.002663042153892773 0.0028323982694197234 0.0030170264915736406
0.0032189677070069943 0.0034412134940271224 0.003683585691254943 0.0039461157893174005 0.004231306303431975 0.0045426697209473 0.00488512529409673 0.005251387567956753
0.00565934921789153 0.006148832605181166 0.006697070919917005 0.007310173549236946 0.008053632763344948 0.008937025518074864 0.010433617212315218 0.012728891161298436
0.01754765306573572 0.03288003583271964 0.06341877398975886 0.09316432692657561 0.37744767299498216 0.1312216501662373 0.051304800232196544 0.024288352200560855
0.01634959129106779 0.010487070851398524 0.007004626325816488 0.005180165605169217 0.004352794712072393 0.0034127464385888626 0.0028263388203033308 0.0021944764545780626
0.0017883496076102246 0.0014345468702862886 0.0011091349768522919 0.00084620172066974 0.000674345241608809 -0.0 -0.0 -0.0
-0.0 -0.0 -0.0 -0.0 -0.0 -0.0 -0.0 -0.0
-0.0 -0.0 -0.0 -0.0 -0.0 -0.0 -0.0 -0.0
-0.0 -0.0 -0.0 -0.0 -0.0 -0.0 -0.0 -0.0
-0.0 -0.0 -0.0 -0.0 -0.0 -0.0 -0.0 -0.0
0.0 0.0 -5.468214037525816e-07 -9.230615275432389e-07 -1.021188457035531e-06 -1.396299862669602e-06 -1.5113122758560115e-06 -1.654245794678999e-06
-2.0625297608793368e-06 -2.5642428030297316e-06 -2.6039977643485963e-06 -2.8750790965814007e-06 -3.521572122975616e-06 -3.4689256397469406e-06 -4.5051204363087896e-06 -4.584041806737104e-06
-5.29659920180014e-06 -5.785171601933371e-06 -6.253771228161674e-06 -6.605756908458607e-06 -7.151834178987114e-06 -6.306547559910721e-06 -7.79814160977059e-06 -8.616279942187497e-06
-7.832353472103484e-06 -8.895588494386913e-06 -9.525522627201235e-06 -9.417088190243756e-06 -1.1129346749978026e-05 -1.2471984838020367e-05 -1.3561194150580163e-05 -1.4270614433210681e-05
-1.4687843178858042e-05 -1.740614333188265e-05 -1.8437864292131943e-05 -2.0614109531791643e-05 -2.2282197727992787e-05 -2.540590201383448e-05 -2.8310212181810237e-05 -3.1716760020208625e-05
-3.465519430689724e-05 -4.121808090886167e-05 -4.7107074062429036e-05 -5.103800573612279e-05 -6.41172063551401e-05 -6.877222336352517e-05 -0.0001000190431359862 -0.00011482705471882035
-0.0001552102804042843 -0.00016826262302156223 -0.00017655081210242983 -0.00018150324866651995 -0.000180841081277149 -0.00017668284736795724 -0.00013710361438922856 -9.079243144059696e-05
