wdlf_7Gyr_compare_da_cooling_models.npy (npy, 9728 bytes, 1 tensors)

array f8 [6, 200]
-0.0 -0.0 -0.0 -0.0 -0.0 -0.0 -0.0 -0.0
-0.0 -0.0 -0.0 -0.0 -0.0 -0.0 -0.0 -0.0
-0.0 8.026807830992903e-07 8.934069740278921e-07 9.898507901493989e-07 1.080724389238421e-06 1.1601103237582997e-06 1.2437637516006749e-06 1.3460624138623027e-06
1.501000362382596e-06 1.6584548503990323e-06 1.8512600011563295e-06 2.048733920185385e-06 2.27280671666052e-06 2.502056689831565e-06 2.7207880268724903e-06 3.0121697593648538e-06
3.3390242308502954e-06 3.6737965382374553e-06 4.032776633928912e-06 4.350949852584715e-06 4.746338033196543e-06 5.198166631536036e-06 5.490433348188516e-06 5.821806759738648e-06
6.10211045567243e-06 6.510718410478096e-06 6.788907677191542e-06 7.086913431784938e-06 7.440151022983738e-06 7.755667931796845e-06 8.077203036162065e-06 8.465582513525328e-06
8.853136195705645e-06 9.274894474230591e-06 9.78787196096774e-06 1.0308399150203777e-05 1.0875273388260201e-05 1.1551118258541796e-05 1.2353961559785834e-05 1.3108830707958734e-05
1.3882727752145427e-05 1.475554734736746e-05 1.575995729439762e-05 1.6784627235702526e-05 1.7906112331524515e-05 1.923977902177218e-05 2.0726709870055347e-05 2.2331786527438526e-05
2.4090322168397196e-05 2.604886046186449e-05 2.8113692380866725e-05 3.0467845134405832e-05 3.295099467865872e-05 3.609822300772479e-05 3.9357151096515605e-05 4.316245768820599e-05
4.749085517391237e-05 5.200066795299502e-05 5.75216141710021e-05 6.444528553825179e-05 7.190337746264528e-05 8.02605167352474e-05 9.134938301229694e-05 0.00010321114121591298
0.00011702859968624663 0.0001325764644611604 0.00015019295503262232 0.0001699937589490705 0.00019199565128059934 0.0002161252216501651 0.0002421094043524945 0.0002696427481663212
0.0002983546832721989 0.0003278031985808011 0.0003578719837988535 0.0003881054954210209 0.0004189635135256037 0.0004496129303653259 0.0004807185946385892 0.0005118049179440471
0.0005434624718662914 0.0005760879179290987 0.0006107339175412552 0.0006478609980665133 0.0006877321137917871 0.0007282835093627843 0.0007695461851651453 0.000810997223784196
0.0008528665453134438 0.0008980081768451667 0.000946553676724365 0.0009942542962318494 0.0010446263888793982 0.0010991946005518974 0.001158082549381185 0.001220987252125123
0.0012875559682110906 0.001358218439097998 0.001432338941663906 0.001511000810214513 0.0015945639028674115 0.001683171185822486 0.0017768203239414224 0.0018765496609988487
0.001982748086688625 0.0020969468171325024 0.0022198665042485128 0.0023518731397327284 0.0024943395969593174 0.0026488749143813374 0.0028173300646174887 0.0030009760745902166
0.0032018429737427885 0.00342290642525411 0.003663989215564045 0.0039251226677717655 0.004208795983849879 0.004518502964905327 0.004859136693016312 0.005223450471400524
0.005629241787612009 0.006116121149882689 0.006661442866578157 0.0072712838232290985 0.008010787874723053 0.008889481028441112 0.010378110935759716 0.012661174152064086
0.017454300505036994 0.03270511582890453 0.0630813895893378 0.0926686977704303 0.3754396718874542 0.13052355811874242 0.05103186148321309 0.02415913948689286
0.01626261235392442 0.010431280204391404 0.006967362095123673 0.005152607405668525 0.004329638080761974 0.0033945908130051045 0.0028113028513799703 0.0021828019591009335
0.0017788356848874426 0.0014269151588982996 0.0011032344390525814 0.0008416999735036465 0.0006811307283554064 0.0005384710420421019 0.000450783517150754 0.00041522938567738725
0.00032999500787137415 0.0003145590991332738 0.00026409125941908456 0.0002460226986191051 0.0002467431487412045 0.00023835696344633162 0.0002241456854482249 0.0002549132842753295
0.00027566083314416385 0.00023771103894485398 0.00022065262637574123 0.0001586040163288114 0.00012355183086479538 0.00010346625748879418 8.511837774846846e-05 7.033554851407537e-05
6.26099367586989e-05 5.3910655155156706e-05 4.5842280018746884e-05 4.0208518838216455e-05 3.6610462231575834e-05 3.3604690475838654e-05 3.031533533630489e-05 2.747010066710256e-05
2.581666732099231e-05 2.4744024058539695e-05 2.3520334916795064e-05 2.2299794450079762e-05 2.18977286209246e-05 2.1666123879778105e-05 2.0910443094124507e-05 1.9733938014667756e-05
0.0 0.0 -5.46821401266528e-07 -9.23061523345666e-07 -1.0211884523867005e-06 -1.3962998563353444e-06 -1.5113122689747035e-06 -1.6542457871377654e-06
-2.0625297514614726e-06 -2.5642427913272413e-06 -2.6039977524021525e-06 -2.87507908341841e-06 -3.5215721070587985e-06 -3.4689256240125117e-06 -4.505120415825936e-06 -4.584041785729745e-06
-5.29659917777588e-06 -5.7851715755862595e-06 -6.253771199666118e-06 -6.605756878355234e-06 -7.151834146482247e-06 -6.306547531185215e-06 -7.798141574117334e-06 -8.616279903042808e-06
-7.832353436457808e-06 -8.895588453860638e-06 -9.52552258392003e-06 -9.417088147391919e-06 -1.1129346699226887e-05 -1.2471984781180208e-05 -1.3561194088850433e-05 -1.4270614368213118e-05
-1.4687843112031659e-05 -1.7406143252751935e-05 -1.843786420824503e-05 -2.061410943795387e-05 -2.2282197626568577e-05 -2.540590189814903e-05 -2.8310212052897643e-05 -3.17167598758296e-05
-3.465519414896907e-05 -4.121808072094161e-05 -4.7107073848158066e-05 -5.103800550378054e-05 -6.411720606355378e-05 -6.877222305116987e-05 -0.0001000190426820867 -0.00011482705419581447
-0.00015521027969847933 -0.00016826262225631567 -0.00017655081129533395 -0.00018150324784252644 -0.00018084108045045915 -0.00017668284656532278 -0.0001371036137653997 -9.079243102726101e-05
00000000: 0000 0000 0000 0080 0000 0000 0000 0080
00000010: 0000 0000 0000 0080 0000 0000 0000 0080
00000020: 0000 0000 0000 0080 0000 0000 0000 0080
00000030: 0000 0000 0000 0080 0000 0000 0000 0080
00000040: 0000 0000 0000 0080 0000 0000 0000 0080
00000050: 0000 0000 0000 0080 0000 0000 0000 0080
00000060: 0000 0000 0000 0080 0000 0000 0000 0080
00000070: 0000 0000 0000 0080 0000 0000 0000 0080
00000080: 0000 0000 0000 0080 c03a 75b5 f9ee aa3e
00000090: 9b4f 6ab6 4efa ad3e 24b5 1a74 609b b03e
000000a0: 38a1 4a08 ad21 b23e af95 5cca a276 b33e
000000b0: 82ee 03b5 ecdd b43e 9bcd 9746 4b95 b63e
000000c0: 0b59 0b5a bf2e b93e 3649 6464 02d3 bb3e
000000d0: 0ffa b5e5 190f bf3e be39 3c62 9f2f c13e
000000e0: 5be6 d1b4 d010 c33e e1e1 3f36 20fd c43e
000000f0: 02d1 3f09 d9d2 c63e 5fd1 6ed6 9544 c93e
00000100: 24b5 cefb 7f02 cc3e 3921 8501 6bd1 ce3e
00000110: a152 4733 29ea d03e a23b 1bfd cb3f d23e
00000120: a5b6 d676 57e8 d33e 872e e329 7dcd d53e
00000130: 7304 b4d3 4e07 d73e c720 870e 1e6b d83e
00000140: 1f5c 9959 1798 d93e 9f5f 3da6 d44e db3e
00000150: 9702 95bb 8879 dc3e db5f 4aee 83b9 dd3e
00000160: 55c2 fa23 cd34 df3e 954c 4fe2 ca43 e03e
00000170: ecb5 0f55 6af0 e03e 12c6 1acd ecc0 e13e
00000180: 9414 10c6 fd90 e23e 5417 44ca 6b73 e33e
00000190: 3154 08e1 d286 e43e c349 5797 479e e53e
000001a0: 82d7 7531 9ece e63e 42c3 d99a 7539 e83e
000001b0: de66 4a8c 7be8 e93e 7240 47f9 bf7d eb3e
000001c0: 79e5 d692 3b1d ed3e ec80 3efc d2f1 ee3e
000001d0: 8f6c c604 8886 f03e 3843 04cd 9699 f13e
000001e0: 76e8 77ab a2c6 f23e d524 018c a32c f43e
000001f0: cc65 1fa8 c8bb f53e 577d 4baf a46a f73e
00000200: 2dd4 7455 b242 f93e 9d7a 7d0f 7050 fb3e
00000210: ea7a c23a b67a fd3e 9317 fa5f a6f2 ff3e
00000220: b625 5e8e 9b46 013f c829 837f 05ed 023f
00000230: e550 226a 6da2 043f e97f e4c0 2aa1 063f
00000240: 755e d05b 1de6 083f 0910 8858 6943 0b3f
00000250: 2323 099d 6b28 0e3f c8f6 3793 d9e4 103f
00000260: c3dc 629e 5ad9 123f 1d5b 9b2d 310a 153f
00000270: 22ad 3f73 5af2 173f 0a1e 88e7 610e 1b3f
00000280: f6aa 8c08 a8ad 1e3f 272c 7d28 8760 213f
00000290: eed2 efa8 a3af 233f 014b 3a45 0b48 263f
000002a0: 0382 2116 4e2a 293f 9521 8584 f553 2c3f
000002b0: 2f19 8ff2 d7bb 2f3f 0350 f4c8 daab 313f
000002c0: ad8e 759b 8f8d 333f a435 7604 a07b 353f
000002d0: b52d 7177 1874 373f d3e8 0469 546f 393f
000002e0: e23b bc96 0a75 3b3f d163 efd4 4077 3d3f
000002f0: b446 7ea4 1e81 3f3f 9559 37b1 54c5 403f
00000300: 07d7 89c5 e4ce 413f 1231 3162 93e0 423f
00000310: 902a e819 3503 443f d141 47e6 a63a 453f
00000320: 545b f477 1d89 463f 8052 6eed 48dd 473f
00000330: 1591 59d9 6b37 493f 1888 d246 2393 4a3f
00000340: 1ab3 c1f5 5cf2 4b3f 69bc 23e0 096d 4d3f
00000350: 2fb0 ef8a 4404 4f3f 1615 eb6b 344a 503f
00000360: 944a 500b 7b1d 513f bfb4 1f37 5b02 523f
00000370: 8405 3eab 59f9 523f 52fb 4414 3101 543f
00000380: 8178 9db1 6618 553f ec45 b6f1 c740 563f
00000390: 45a7 513a aa77 573f 653a 1ac4 98c1 583f
000003a0: 79d0 1bf4 1520 5a3f 9e5b 964c bb93 5b3f
000003b0: a81b a94b 861c 5d3f 9582 17db d1be 5e3f
000003c0: e978 08c6 1f3e 603f 5f7b 08c0 9d2d 613f
000003d0: b203 31c1 652f 623f fd15 0647 3c44 633f
000003e0: e952 cf5f 026f 643f b15d 1ce4 17b3 653f
000003f0: 098e aa8f 5e14 673f 8c10 16c3 8095 683f
00000400: ba2d 7e5b c03a 6a3f f964 ebe4 5a0a 6c3f
00000410: 7fdf 513b f103 6e3f 6998 da17 ca13 703f
00000420: c1e0 b211 3e3d 713f 1ddc 6067 fe81 723f
00000430: 91ca ee92 2ce7 733f a4ab 264f 2f65 753f
00000440: deab 1016 b00e 773f 7dec 12c5 370d 793f
00000450: 3d17 1974 0749 7b3f afff 8763 7ec8 7d3f
00000460: 6a3d 7fbf f567 803f 3e52 5df2 a534 823f
00000470: 90bc 8178 1e41 853f 63ee 4b07 1aee 893f
00000480: 51f0 5f47 8adf 913f 6b48 cb95 b9be a03f
00000490: adbe 4519 1a26 b03f b072 49c2 22b9 b73f
000004a0: 602a 181e 3407 d83f 7d20 bdf6 feb4 c03f
000004b0: a8b1 3f20 d920 aa3f a19a fb67 2cbd 983f
000004c0: 369d d470 25a7 903f 2e8b aaba fe5c 853f
000004d0: 4b3a 6805 cf89 7c3f 3a5b be84 e61a 753f
000004e0: bcc0 5d5f f4bb 713f 321a ce10 f9ce 6b3f
000004f0: e558 c9b9 ba07 673f 1b3d e5e0 aae1 613f
00000500: b6f1 db45 fa24 5d3f c7be 437c ea60 573f
00000510: 04ae 79f5 4c13 523f 3ba6 fbed b094 4b3f
00000520: 0660 ee19 bd51 463f e714 f9c1 05a5 413f
00000530: 5b8e b776 e48a 3d3f 611f bfa1 6436 3b3f
00000540: 503a 43c4 65a0 353f c6a9 1e0b 6d9d 343f
00000550: 8279 8652 b74e 313f f81a d471 931f 303f
00000560: c971 1dc1 a92b 303f fcc1 bdb9 ee3d 2f3f
00000570: 90aa eec6 1461 2d3f 9da2 2238 bcb4 303f
00000580: 264b 5d43 d210 323f bbbc bd46 4228 2f3f
00000590: 8183 cca0 dfeb 2c3f c5bc 5420 dec9 243f
000005a0: 5274 5625 b631 203f 02fd c3c4 801f 1b3f
000005b0: 8e98 4998 3250 163f eab8 bf85 2370 123f
000005c0: ab0a ec85 ae69 103f 1208 a201 c443 0c3f
000005d0: 071f 65bf d808 083f a274 fc2f b214 053f
000005e0: 47fe 5fe7 c531 033f a471 685f 589e 013f
000005f0: c031 3cfb b5c9 ff3e 6f31 98f1 f2cd fc3e
00000600: dfc4 8ede 1b12 fb3e 9baf b962 2cf2 f93e
00000610: 53e8 ae1b b1a9 f83e 60d1 b734 0e62 f73e
00000620: ce74 d973 20f6 f63e 1c88 27b2 f4b7 f63e
00000630: e1d9 2eb5 1aed f53e 0169 f1e4 49b1 f43e
00000640: 0000 0000 0000 0000 0000 0000 0000 0000
00000650: c26d 5ffa 2859 a2be f38b 92c1 09f9 aebe
00000660: ff4c da93 f821 b1be 8307 8bed 0f6d b7be
00000670: a651 b669 095b b9be 9186 687a eec0 bbbe
00000680: c7fa e0b8 3f4d c1be 1d12 fc61 ab82 c5be
00000690: b322 5be7 0ad8 c5be 6cf3 0571 2f1e c8be
000006a0: e0dd 68bd 848a cdbe 016e 9d07 7619 cdbe
000006b0: 40e4 0712 56e5 d2be c840 b8cf 133a d3be
000006c0: 0673 8d18 2e37 d6be b256 a0da c743 d8be
000006d0: 1ce8 b189 ef3a dabe 6171 df9f e0b4 dbbe
000006e0: c073 7433 39ff ddbe 9ec2 dd95 9a73 dabe
000006f0: 20c1 be6a 985a e0be b453 217e d411 e2be
00000700: 17bb a375 f66c e0be 9b18 1c5e c8a7 e2be
00000710: 2ae7 eeda f9f9 e3be cb04 5fbd c2bf e3be
00000720: d107 5fc3 0557 e7be f72f 3a89 d827 eabe
00000730: d77d ca52 9c70 ecbe b710 de4d 7aed edbe
00000740: b571 3cc9 79cd eebe 140d 6b0e 6d40 f2be
00000750: 97c2 6961 6055 f3be fb57 5fd0 8e9d f5be
00000760: 8f02 20f6 545d f7be ee83 d148 d8a3 fabe
00000770: a535 64f5 76af fdbe c517 3b92 f3a0 00bf
00000780: e9df 6f67 572b 02bf 3de1 3778 329c 05bf
00000790: 208a 92bb 9ab2 08bf 9947 1484 34c2 0abf
000007a0: ebf6 6d36 d5ce 10bf 1dac a6cb 3907 12bf
000007b0: f63f b611 2a38 1abf 9814 16c5 e919 1ebf
000007c0: 8bc4 8e26 fe57 24bf a0bd 61eb f40d 26bf
000007d0: fe33 d3eb 0f24 27bf 61c4 f606 3dca 27bf
000007e0: e73e 780d 05b4 27bf 144b 7418 7e28 27bf
000007f0: 1420 1713 6ff8 21bf c99b 8316 facc 17bf
